working/ML/Models/diease.onnx (onnx, 88429 bytes, 6 tensors)

fc.1.bias f4 [7]
00000000: df28 00bd 2fb1 08bd ecdf f83c a8eb 32bd
00000010: 6504 6b3c 6602 c93b cad3 193c
-0.031288978 -0.0333721 0.030380212 -0.04368177 0.014344309 0.006134319 0.009388873

conv1.weight_bias f4 [64]
00000000: 7c14 533e c6d9 883e c68e 073a a391 17bf
00000010: f2f7 053a 8a75 133e df4d e43e 6b5e 1bba
00000020: e474 963e 88c6 44ba 28c3 a73e d96a 953e
00000030: c1f2 40be 5a01 42ba 1e0c ef3d 50de 493e
00000040: 94de b83e 72f6 15bf e0d4 34bf 9c80 1d3f
00000050: 69d4 a33e 1000 0a3f 979c 053f caf9 b53e
00000060: 5f16 5a3e 48e0 343e 2cd5 213e 6e16 8d3d
00000070: 3e55 083f 9029 843d 6554 2d3e ae2a a03e
00000080: 449f 543e b2a2 d53e 9c4e a7be c654 243d
00000090: 1ffe 95b9 6bc5 953e c379 ccb9 776c 6c3e
000000a0: e562 513e 06ed 963e 1ef2 e73e a9e7 883e
000000b0: fc56 7f3e b82d 333f 6ca2 c93e 48ec a13e
000000c0: d0cd 96b9 e3e8 873e daff a83e 3339 283f
000000d0: 49a7 d13e f803 9a3e 6a3e b2be ccaa cf3e
000000e0: 8589 4a3e 9387 783e e4dd bcbe 50bb 563e
000000f0: cc43 1b3f 6831 073f e12d a3be e63e 783e
0.20613283 0.26728648 0.0005171116 -0.592066 0.0005110494 0.14400306 0.4459066 -0.000592685
0.29386055 -0.000750639 0.3276608 0.2918308 -0.18842603 -0.0007400714 0.11672233 0.19713712
0.36107314 -0.5857917 -0.7063732 0.6152437 0.31997994 0.53906345 0.5219206 0.35542136
0.21297596 0.17663682 0.15803975 0.06889044 0.5325507 0.0645324 0.16926725 0.31282562
0.2076388 0.4172569 -0.32677162 0.04011991 -0.0002860883 0.2925218 -0.00039000632 0.23088251
0.20447882 0.2947771 0.45301908 0.26739243 0.24935526 0.69991636 0.3938173 0.3162558
-0.00028763572 0.26544866 0.330077 0.6571228 0.4094794 0.30081153 -0.34813243 0.40559995
0.19779022 0.24270467 -0.3688804 0.20969892 0.60650325 0.5280976 -0.3187094 0.24242744

layer1.0.conv1.weight_bias f4 [64]
00000000: a76e ae3e 4e4f d03e 64e1 1f3e b76d 843e
00000010: a235 1d3f f69e d63e a95f 853e aa3e 153e
00000020: abe4 ff3e 78fe 963e d8a2 103e 5a0d 723f
00000030: aded 493e 2a1a 9c3e 92c5 a13e e8fb 003f
00000040: 4d93 453f 6455 123d 0d30 783f ae8f 683e
00000050: 8513 e63e 5a5d 3c3f 845b 3a3f b0d4 ca3e
00000060: 6e1d 293e 9784 203e ac7a b1bd 8451 353f
00000070: 202c fabb 7205 06be 047d 223e 1728 5c3f
00000080: bbbb fc3e dca9 9d3f 6b37 573f 06d1 ce3e
00000090: ef7e f93e de3e b83d a0dc 9a3f 06fb 263f
000000a0: fbb8 4b3e 2ab0 043f 5d2e 0cbe df09 08bf
000000b0: 5db9 733e 1773 023f 6cbf 753f 32cc 5e3f
000000c0: 4b31 783f ee6c 853f baa9 273f c7ac 993f
000000d0: 763e df3e 15c0 443f 7fd2 9c3f 3ed9 2ebf
000000e0: 076f 153f 2f67 82bd f170 163f 680f ac3d
000000f0: e23a 793e 48fe 393f 7c4e 57bf 6c35 023f
0.34068796 0.40685505 0.15613323 0.25864956 0.6140996 0.41918153 0.26049545 0.14574686
0.49979147 0.2949102 0.1412462 0.9455162 0.19719572 0.30488712 0.31596047 0.5038438
0.7717789 0.035725966 0.9694832 0.2271106 0.44936767 0.73579943 0.7279589 0.39615393
0.16515133 0.15675579 -0.08665976 0.7082751 -0.0076346546 -0.13088015 0.15868002 0.8599867
0.49361977 1.2317462 0.84068936 0.40393847 0.48729655 0.08996366 1.209858 0.6522678
0.19894783 0.51831305 -0.13689561 -0.5314006 0.23801179 0.50956863 0.9599521 0.8703033
0.96950215 1.0423868 0.6549336 1.2005852 0.4360234 0.76855594 1.2251738 -0.68300235
0.5837254 -0.06367337 0.58766085 0.08401376 0.24338868 0.7265363 -0.8410413 0.50862765

layer1.0.conv2.weight_bias f4 [64]
00000000: 0c5f ff3d 2fd3 543d 3068 97bf 6ea1 afbe
00000010: b4b8 913d e4cc 52be 8b1d cf3c babf 933d
00000020: c595 5a3f 4410 e8bd 9577 583d a013 0d3f
00000030: 8063 89bd fc35 2fbe 50eb f23b ba6b 213e
00000040: d0f1 8bbd 3083 62be b7bb 99be c040 c0be
00000050: 1829 0cbf 3c85 173e f6af 98be 7eca 803d
00000060: 0bfa 12bd c4e2 063f 7fe3 2bbd cc2c 19bd
00000070: dc78 773e 7d36 383e 93ac 113f f553 6f3e
00000080: 58f5 97bc 9ab9 8e3e 4327 e53d d76f 45bd
00000090: 5f58 7cbf 5f38 0b3f 5a36 d73e f2ce f93e
000000a0: 1f88 8a3e f84c e53d 4001 1c3c 39bf 0a3e
000000b0: 49f1 3cbe be60 dcbd 5bb8 c83f 88bd 80bd
000000c0: 7b4c 7d3d fb65 083e bc2c 383f cab2 e9bd
000000d0: 7081 663d 534d 4c3e 70b1 dcbe b8e2 113e
000000e0: 0fd3 183e 6638 f1bd 0266 b93e 32dc 70be
000000f0: 54aa 67bd cc90 323e 98c3 b2be 5251 4c3e
0.12469301 0.051959213 -1.182867 -0.3430285 0.071153075 -0.20585972 0.025282642 0.07214303
0.8538478 -0.113312274 0.052848417 0.5510807 -0.06708431 -0.17110437 0.0074133053 0.1576375
-0.068332314 -0.22120357 -0.30026028 -0.375494 -0.54750204 0.14796919 -0.29821748 0.06288622
-0.03588299 0.52689767 -0.041965004 -0.037396237 0.24167198 0.17989536 0.5690395 0.23371871
-0.018549606 0.27875978 0.11189129 -0.048202362 -0.98572344 0.5438289 0.42033654 0.487907
0.27056977 0.11196321 0.009521782 0.13549508 -0.18451418 -0.107606396 1.5681261 -0.0628615
0.061840516 0.13320152 0.7194326 -0.114110544 0.056275785 0.19951372 -0.43104124 0.14246643
0.14924262 -0.11778335 0.36210638 -0.23521498 -0.056558922 0.17438048 -0.3491485 0.19952896

layer1.1.conv1.weight_bias f4 [64]
00000000: 460e 4b3e 46fa 92bf 2987 083f 516c 8e3e
00000010: c4b9 cc3e e1e4 493f 542d 683e f849 a6bc
00000020: 0826 313e d9ec 953e 7668 c03e 4444 893e
00000030: 2207 7e3f 663b b23e f2a4 eabd 5ce5 0ebe
00000040: 325d 6d3e d851 d63d 484a 1f3f 56d6 2f3e
00000050: 7cb6 c4bd efd7 523f d702 4f3f 2ae0 c3bd
00000060: 4193 b5be daaa 3c3f f420 6e3f 544f ca3e
00000070: cc5b e0be ec64 593d 7bc5 9cbe dee7 9c3f
00000080: f76d e03e 4270 c0bd 3c3f 843f a33e a43f
00000090: c0a0 933a bc91 d1bd 8210 b53e 1e83 3e3f
000000a0: f50c 3ebf e4e5 433e 06b4 d7be 108a d73e
000000b0: 64a6 103f 26a1 803c 8af8 10be e6d2 47bd
000000c0: 9e82 86bf 9692 b83e 652e f7bd 18de 2a3f
000000d0: e527 ea3d 6f4d b23e 4666 553f 0c4a 963d
000000e0: 3979 e03e 46f1 a53e b4b2 e2bc 1298 833f
000000f0: cd42 173f 801e 0fbc be16 4fbf ac33 163f
0.19829664 -1.1482627 0.5333124 0.27817014 0.39985478 0.78864866 0.22673541 -0.020298943
0.17299664 0.29282263 0.37579697 0.26809895 0.99229634 0.34810942 -0.11457242 -0.13954681
0.23180082 0.10464829 0.6222272 0.17171606 -0.09605119 0.8236074 0.8086371 -0.0956424
-0.35463908 0.736982 0.9301903 0.39513648 -0.43820035 0.053074762 -0.30619416 1.225826
0.43833897 -0.093964115 1.0331798 1.2831615 0.0011263117 -0.10232875 0.35364157 0.7441882
-0.7423852 0.19130665 -0.42129534 0.4209752 0.5650389 0.015701842 -0.1415731 -0.048785113
-1.0508611 0.36049336 -0.12069396 0.6674514 0.114333905 0.34824702 0.8335918 0.07338342
0.43842486 0.3241064 -0.027673103 1.0280783 0.59086305 -0.008735299 -0.80894077 0.58672595

layer1.1.conv2.weight_bias f4 [64]
00000000: d157 3abe bb43 6a3e 20f5 64bf dc55 463d
00000010: b8a5 a9bd 5887 bd3c e229 9abe 2057 61be
00000020: 5603 313f 1e77 b33e 9cea 89be 7adb 1d3d
00000030: 208a ebbc bb0f a23f f05b 65be 28ce f43d
00000040: b4e1 d03d 1880 853e 4cbe 02be 10d8 303d
00000050: c81f 3fbd 8d51 0fbe a019 d1bd a5a3 04bd
00000060: 201f 79be 0027 f73d 2afc a63d e209 693e
00000070: 7577 8b3f cae8 923d 2c40 123d 84a1 263e
00000080: c65e 673f 00a3 d53c 821f 193f a22f 2ebe
00000090: 1cf0 5d3f 6a20 b53e 8b8e e93e 9e61 7e3e
000000a0: fd4f 26be 0fee 63be 7298 32be 1a1e de3e
000000b0: 00f3 ce3e 90fe 703e 8c7f e83e 583f c4bc
000000c0: 69dd a33e 6248 933e 9482 e83d cfe1 f3bd
000000d0: e010 483e 1570 f1bd b7c8 35bd 10b0 e8be
000000e0: e9a6 20be 7d2c 4d3e b340 143e 2320 8dbe
000000f0: d011 21be 75cf 193d 682c ad3b 2ebf 8dbe
-0.18197562 0.228774 -0.8943653 0.048421726 -0.082835615 0.023135826 -0.3011008 -0.22005892
0.69145715 0.35051817 -0.26936805 0.038539387 -0.028752387 1.266105 -0.22398353 0.11953384
0.101992995 0.2607429 -0.12767905 0.043174803 -0.04666117 -0.13995953 -0.10209966 -0.032382626
-0.2432828 0.120679855 0.08153565 0.22757676 1.089583 0.07173307 0.03570573 0.16272551
0.9037899 0.026078701 0.598137 -0.17010358 0.866945 0.35376292 0.45616564 0.24841926
-0.1624145 -0.22258781 -0.17440966 0.4338234 0.4041977 0.23534608 0.4540981 -0.023955986
0.3200486 0.2876616 0.11353031 -0.11908304 0.19537687 -0.11788956 -0.04438087 -0.45446825
-0.15688671 0.20036502 0.14477806 -0.2756358 -0.15729451 0.037551362 0.0052848347 -0.2768492
